CNN_learn_pytorch_MNIST_v2.pth (torch, 180551 bytes, 10 tensors)

conv1.weight f4 [6, 1, 5, 5]
00000000: 6ebb 003d a407 d1bc 09a9 9fbd cbb7 18bd
00000010: 9c71 993d 0124 b3bd 2bc3 84be 7250 82bc
00000020: 231a ae3e f9bc 2a3d 6598 0c3c 6639 2e3e
00000030: 927b e83e 2693 803e 6bc7 d6be 95c9 1b3d
00000040: 96fe e33d 7380 e13d 8b92 7fbe 3f68 f1be
00000050: 8af5 3cbd 65b5 8dbd 6ee2 64be 5869 7dbe
00000060: 21cd c53a ff0c 353e 9efb 58bc 6dae 16be
00000070: 8dca b3bd 6af1 5cbd a256 debe f9ee 6abe
00000080: 6deb 9cbe 2bfa 19be 0df3 223e f254 80be
00000090: 0b70 1fbe ea61 94bd 28d1 b53d d793 433e
000000a0: 2205 c9be 2706 d2bc 23b7 a3bd e544 f93d
000000b0: 56c9 4dbc 40f2 623e bdd8 183c 8ad8 e63d
000000c0: d139 46bc 0275 8d3e 0329 69bd 2854 a83d
000000d0: 272d ba3d 78b7 5ebd f35e 393d 745c ccbd
000000e0: d79d a03e 4ca3 323e e121 6f3d bc3c b7bb
000000f0: d641 e6be 15d0 2dbe 6ee9 5c3e 2390 8d3d
00000100: 3e52 3a3d 0e28 abbe 5838 15bf c3b6 17be
00000110: 9fb8 f33d d5d7 85bd 5fa3 273e cf4a 15be
00000120: 4c48 9ebe bcd2 97be aee6 adbb 72a5 0cbf
00000130: af60 1fbe 3ba1 633e 5da2 303d 9471 4c3d
00000140: 1f41 eebc baa1 a6bc d469 69be 3aee 1dbe
00000150: 7f94 9dbe a4d0 3abd e53c 143d 239f a1bb
00000160: 2111 59be 7d0c 23bf 9727 eabd 52b3 e63d
00000170: 1f74 13be a064 20be 8a36 82bd 2183 11bd
00000180: c260 903e 0815 373e 1d4b 793e ef3f 943d
00000190: 03f8 753d 0376 4e3d 7941 33be c32c f03e
000001a0: ff24 7f3e f3ed 303c 0b68 ab3d e352 a1bc
000001b0: b930 48be e95f 8a3e a069 003d dc79 3dbd
000001c0: 0863 d7bb ad27 19be b9f7 f63d a04b 8c38
000001d0: db12 0fbe acb4 3fbf 16cc 3ebe a889 9a3c
000001e0: ee74 3f3e 2a05 11be 681a 0e3e 63ad e13c
000001f0: dcc2 1c3e e76c 563e 088f a2bc b825 94be
00000200: 4e75 6ebd 1a62 3d3e 6009 223e 5147 63bd
00000210: ed4c b1be 5192 0cbf bf50 6fbe 743e c63d
00000220: 5446 663d 4368 73be a266 89be 1aa0 8fbd
00000230: f9da c63b 1342 cc3e da9b fbbb c734 92bd
00000240: 8ae7 f43c 94d8 9f3c 15a2 28be b49b 853e
00000250: 3fde 8b3e 4024 fc3c
0.031428747 -0.025516339 -0.07795913 -0.037284654 0.074923724 -0.087471016 -0.2593015 -0.0159075
0.34004316 0.041684125 0.008581256 0.17014083 0.45406777 0.25112265 -0.4194902 0.03803404
0.11132543 0.11010828 -0.24958245 -0.47149846 -0.0461326 -0.06919364 -0.22352001 -0.24747217
0.001509104 0.17680739 -0.013243584 -0.14714976 -0.08778868 -0.053941168 -0.4342547 -0.22942723
-0.30648366 -0.15036838 0.15913029 -0.25064808 -0.15570085 -0.07245238 0.08877784 0.19099365
-0.3926173 -0.0256377 -0.07993915 0.12171344 -0.012560209 0.22162724 0.009329018 0.1127177
-0.012098745 0.27628332 -0.056923877 0.082191765 0.090906434 -0.05437419 0.045256566 -0.099785715
0.31370422 0.17445105 0.05838192 -0.005591957 -0.44972104 -0.16973908 0.21573421 0.069122575
0.04548859 -0.33428997 -0.582891 -0.14815812 0.11900448 -0.06535307 0.16370915 -0.14579318
-0.30914533 -0.29652965 -0.00530704 -0.5493995 -0.15564226 0.22229473 0.04312359 0.049913004
-0.029083787 -0.02034079 -0.22794276 -0.15422907 -0.30777356 -0.04560913 0.036190886 -0.0049323007
-0.2119794 -0.6369093 -0.114333324 0.112646714 -0.14399765 -0.15663385 -0.06358059 -0.035525445
0.2819882 0.17879117 0.2434506 0.07238757 0.060050976 0.050405513 -0.17505445 0.4690915
0.24916457 0.010798919 0.08369454 -0.019692844 -0.19549836 0.270263 0.03135073 -0.046258792
-0.0065730847 -0.14956541 0.12058968 6.6898065e-05 -0.13972037 -0.7488506 -0.1863254 0.018864468
0.18696949 -0.14162126 0.1387726 0.027548498 0.15308708 0.2093998 -0.019843593 -0.28935027
-0.05821734 0.18494454 0.15823889 -0.055487934 -0.34629002 -0.5491076 -0.23370646 0.09679881
0.056219414 -0.23770241 -0.26836115 -0.07012959 0.006068584 0.3989416 -0.007678491 -0.07138973
0.029895563 0.019512452 -0.1646808 0.26095355 0.27317998 0.030779004

conv1.bias f4 [6]
00000000: be33 5bbd 8da5 d6bd 5105 083d e098 88be
00000010: 32ad c2be 1780 f4bd
-0.053516142 -0.10480795 0.033208195 -0.26679134 -0.38022763 -0.11938494

conv2.weight f4 [16, 6, 5, 5]
00000000: 6711 d4bd 89aa f8bd c7c2 0c3e 7113 4c3e
00000010: 6e8f a9bd e795 8bbe 14a5 2c3d f6dd 4f3e
00000020: b6b0 973e 20c5 c23e 9f90 85be d9bf f3bd
00000030: 9283 fe3d 8f9e cf3e 1330 813e 8176 90be
00000040: b620 e7bd 09a8 333e c646 1a3e 8f0d f1be
00000050: dff1 f1be ee0e 67bf 1ecd 55bf b97e c4be
00000060: ca84 5bbe bfaf a4bc 6658 cf3d 7882 3e3d
00000070: 762a 9abc e98f 4bbe 3170 cd3d 6d1e d93d
00000080: 6b81 043e 248f 113e 88fc c93c 70c3 b8be
00000090: 398c dbbd 8dff 953d 7ea4 83bc b539 efbe
000000a0: f2ff d8be e135 3abf 9a0e 05bf 9c23 35bf
000000b0: 701e 03be ad44 57be da22 01bf 0049 c3bd
000000c0: 09b8 b73e 2246 303e 2fab 85be 5931 afbe
000000d0: 7775 a0bd 4ff6 fbba 3210 bfbe 220e 193e
000000e0: 94aa 2ebe f1b9 e33a 2955 8cbe 30ef 4cbe
000000f0: d73b 503e e29d e03d be16 463d 0fa8 e73d
00000100: 8837 113d 8740 833e a161 0b3f e811 0a3f
00000110: d749 743e a980 38bc 8c18 9dbe cfa5 4fbe
00000120: 53a1 89be eada c2be 6468 60bf c24d 22be
00000130: 19cd 7a3c add2 bdbb a51f aa3d e4ae 91be
00000140: bae4 9e3e e948 69bd 7876 743d c780 c63d
00000150: 56e1 6fbd 5832 b1bd dd31 043e c912 b53e
00000160: 2b63 3e3e be59 c3be 57c7 49bd 3681 dcbd
00000170: 18af a6be 5b8a 63be 728d 813d 6914 3e3e
00000180: 7be9 c33e 2571 36be c096 2ebe e2ab 823e
00000190: fc03 0ebd 80a5 9fbc e76d b23d 83ae 5f3e
000001a0: d33f 88be 44e0 9b3d e3ca 10be d102 c93c
000001b0: 9401 9bbe 6218 cfbe 15c7 8fbd 5b4c e1bd
000001c0: 96bf adbd dda5 123a dc3b 9ebc ef42 c63e
000001d0: 5c48 e33e 2e93 823e be45 a13e 4a6a cc3c
000001e0: 7fb4 77be 8e26 eb3c fee1 55be 9c94 b0be
000001f0: c270 e2be 2b11 ebbd 4c69 13be 078e f1bb
00000200: dcd9 e6bd 3241 2d3d 3d1d 563e 983a b7bd
00000210: 2fc3 083e 682c 4ebe f7e3 07be 5eec cdbc
00000220: 221a 5f3e bef3 a83e bd0b d03d fb22 f23b
00000230: 0329 8fbe 7553 01bf bb90 cfbe 4d6f 1ebe
00000240: 6680 acbe 7d47 b83d 827f a43d b0e0 f23a
00000250: 7042 27be e314 5bbe 4ddb 43bd e887 8f3e
00000260: 0b61 a73e ee3a ae3d d0f4 1d3d e64f f4be
00000270: 6c72 9fbe e00c 89bc c163 f7bb c89b 67be
00000280: 1d91 9abd bdc6 edbe 4185 efbe dce1 8abd
00000290: 8398 8039 aa31 94ba 7de2 9cbe d7be 0dbf
000002a0: 38f0 58be 966c 2abd fae1 b93e 1c93 c53d
000002b0: 44af 78be dab8 3b3d 9df2 63be b2d7 c5bd
000002c0: f43e 6e3d 97f4 b6bd 5bab 48be 49f5 bdbd
000002d0: 4378 fcbd f43d bfba 470e 2cbd 5d63 b9bd
000002e0: 6f84 e33c 3b5d f53d 6bf8 70ba c645 103d
000002f0: a20e 993e ca0c de3c e6be 763e 9758 1ebe
00000300: ab6e 833d d4be 313e 4c9d 3a3d 678a 0a3a
00000310: 0207 3bbd 9469 75be 4831 25bf fd0e a3be
00000320: c81f cfbd f1cc a23d 687a ff3d e689 d53d
00000330: 378f 09be 5c6f 05be 0b0a 01be 459a b7bd
00000340: b9af a6bc 7a8f 5dbe 3a26 0e3e 0d21 713d
00000350: 58a1 463e 0fc9 293e 7514 98be 294f 8dbb
00000360: 0350 0d3e 5c30 3cbd 5519 b5be 197e 92bd
00000370: 3434 03be c6cf 50bd abf2 f33b 2290 d9be
00000380: 763f 03bf 945d 87be c794 a0be a685 87be
00000390: b928 1fbe cbe0 edbd 5ad2 4f3e 6a5a 55bd
000003a0: 9090 33be 9617 e3be 00aa 01bf 859f 2d3e
000003b0: ede8 a63e a16d e83d 5b1b 78be 346a 2ebe
000003c0: 5339 f3bd 75f4 9a3e c057 2fbc f978 4c3d
000003d0: 9d1c 4fbc ab73 ce3d 139c e2bd 9e9c 2fbe
000003e0: fc0d c0bd a3d4 d9be 23ff ccbd 1a18 093c
000003f0: 77c4 c73d ec8d ed3c 39c8 7b3d 69db 15bf
-0.10354882 -0.12141902 0.13746177 0.19929291 -0.0827931 -0.27262804 0.04214962 0.20299515
0.29627007 0.3804102 -0.260869 -0.119018264 0.12427439 0.40550658 0.2523199 -0.2821541
-0.11285536 0.17544569 0.1506606 -0.47080657 -0.47254845 -0.90257156 -0.8351611 -0.38377932
-0.21437374 -0.020103334 0.101242825 0.046511143 -0.018819075 -0.19879116 0.100311644 0.106015064
0.12939994 0.1421476 0.02465655 -0.36086607 -0.10720105 0.07324133 -0.016069647 -0.46723714
-0.4238277 -0.7273846 -0.51975405 -0.7075746 -0.1280458 -0.21022291 -0.50443804 -0.09535408
0.35882595 0.17214254 -0.26107165 -0.34217337 -0.07834905 -0.0019223186 -0.37317044 0.14946797
-0.17057258 0.001737414 -0.27408722 -0.20013118 0.20335327 0.10967614 0.048361532 0.113113515
0.03545335 0.25635168 0.54445845 0.5393357 0.23856293 -0.011261144 -0.3068279 -0.20278095
-0.26880893 -0.38057643 -0.8765929 -0.15849975 0.015307688 -0.005792937 0.08306817 -0.28453743
0.3103388 -0.0569543 0.059683293 0.09692531 -0.058564506 -0.086521804 0.12909646 0.35365894
0.18592517 -0.38154405 -0.04926237 -0.107668325 -0.3255546 -0.22220747 0.06325807 0.18562473
0.3826407 -0.17816599 -0.17049694 0.2552176 -0.03467177 -0.019488096 0.087123685 0.21843915
-0.26611194 0.07611135 -0.14139895 0.024537476 -0.30274642 -0.4044829 -0.07020394 -0.11000892
-0.08483808 0.00055941736 -0.019315653 0.3872294 0.44391143 0.25502914 0.31498522 0.024953026
-0.24189948 0.028704908 -0.2088699 -0.3448838 -0.44226652 -0.11477884 -0.14395636 -0.0073716673
-0.11272022 0.042298503 0.20909591 -0.08946723 0.13355707 -0.20134127 -0.13270555 -0.025137123
0.21787313 0.3299846 0.10158489 0.007389424 -0.27960977 -0.5051797 -0.40540108 -0.15472145
-0.3369171 0.0899801 0.08032133 0.0018530097 -0.16333938 -0.21394686 -0.047816563 0.28033376
0.32691225 0.08507334 0.03856355 -0.47717208 -0.31141984 -0.016729772 -0.0075497334 -0.2261802
-0.075472094 -0.46440688 -0.46781352 -0.067813605 0.00024527693 -0.0011306305 -0.30641547 -0.55369323
-0.21185386 -0.041607462 0.3630522 0.096471995 -0.24285609 0.045830585 -0.22260518 -0.09660281
0.058165506 -0.089333706 -0.19596617 -0.092753 -0.123276256 -0.0014590607 -0.042005803 -0.09052155
0.02777311 0.11980673 -0.00091922906 0.03522279 0.29893976 0.027105708 0.2409626 -0.15463482
0.064175926 0.17357951 0.045560166 0.0005284906 -0.04566098 -0.23966056 -0.6452832 -0.31847373
-0.10113484 0.07949246 0.12474519 0.10426693 -0.13433538 -0.13030761 -0.12601487 -0.089649715
-0.020347463 -0.21636763 0.1388177 0.05886941 0.19397485 0.16580604 -0.29703107 -0.004312415
0.13800053 -0.045944557 -0.3537089 -0.071529575 -0.12812883 -0.0509794 0.0074446998 -0.42492777
-0.5126871 -0.26438582 -0.31363508 -0.26469153 -0.15542878 -0.116151415 0.20295087 -0.05208818
-0.17535615 -0.44353932 -0.50650024 0.16955383 0.32599583 0.11349035 -0.24229185 -0.17032701
-0.11876168 0.3026463 -0.010702074 0.049920056 -0.012641099 0.10080656 -0.11064925 -0.17149588
-0.09377667 -0.4254504 -0.10009601 0.008367563 0.097542696 0.028998338 0.061470244 -0.5853792

conv2.bias f4 [16]
00000000: 816a f7bc fadc 013c 770a 6dbe 8cef 83be
00000010: f53a 58be 903e 33be 309b e3bc 797b 4ebd
00000020: 9672 43be e680 3dbe 1c17 0bbb 436e efbd
00000030: c03a 88be f213 90bd 33ea 87be c343 9abe
-0.030202152 0.00792622 -0.23148523 -0.25768697 -0.2111624 -0.17504334 -0.02778396 -0.05041072
-0.1908668 -0.18506202 -0.002122349 -0.11690953 -0.26607323 -0.07035054 -0.26545867 -0.30129823

fc1.weight f4 [120, 256]
00000000: 6c59 a8be eae4 a13d 0d2f afbd 6380 0e3e
00000010: b38d 033d a7c0 2f3e ef00 923e 762f 673c
00000020: 5e75 8e3d e3bc ebbe b9cd eabe e8e7 b6be
00000030: 3830 5bbe bc53 1dbf 0cec 9bbe a85e fabe
00000040: 58c1 2e3f b25a 8a3e fcbb ff3d 382e d13d
00000050: 38b0 eb3d a7cc 0fbd ef60 6cbe b8f3 773d
00000060: 2ce9 85be e4cc 15bd 97ce babe 070a c6be
00000070: 8ef4 16be 5d99 6cbe 46b9 edbe 3376 9dbe
00000080: a616 92be 6a04 5dbe 211d cfbe f3c5 353e
00000090: 05df 26be 9fa2 19bd b031 463e 601b 41bc
000000a0: 1a99 453e 06df d13e e8ee 233e 7d24 f43d
000000b0: fd5e 0d3f 5f1f 3f3e 9e94 683e 6596 7c3e
000000c0: 277c 82be 3d9c e5be 3a9a 74be d218 05be
000000d0: 4d36 d3be 6653 c4bc aac6 c9be 6f24 90bd
000000e0: 8a3e 9f3d 78d6 14be 55ee 093e a253 57bc
000000f0: 951d d83d 0dd1 003e 85a8 283e b0e8 843e
00000100: 6212 563e 1049 f83d 800e b93d 058d 163e
00000110: c613 e93d 1277 62be b2ab 45bd 3441 04be
00000120: 7640 81be 0386 9abe 6945 d13a fdcd a83c
00000130: 3abc d9bd 61d8 e2bd 8665 e3be a382 11bf
00000140: 911c 3c3e f50f c33d 4643 74bd 5649 553d
00000150: 549a 523d 31ef 163e 5f57 743e 7839 993e
00000160: 2d99 3bbe a34e adbd 45d1 99bd 752d 363e
00000170: 7a19 5fbf 3d6e febe 61a0 09be cd45 97be
00000180: f662 10bd 87db 123e 5784 05be a675 043e
00000190: 7e98 dd3d 7260 7c3e cc14 053e 2379 813c
000001a0: 8f10 363e 7d42 a63e 5aca edbc 7f53 9d3c
000001b0: 963f cb3e df6b be3e 2862 a93e 3402 84be
000001c0: 7567 dc3e 239d 2cbe 529a 8bbd 9581 d5be
000001d0: cf7b 713e 469b bd3b ed53 83be 6df1 9abe
000001e0: a8d5 963e 662c 763e a10a 0ebe 856c 793d
000001f0: 289a 1b3e d840 803d 21d4 95bd a68c ed3b
00000200: e6ea 6ebd 4540 b4be 549d 98be 1095 223d
00000210: 16a2 c9be 044f c8be 5c7c 2e3e 55ec 46bd
00000220: 0f96 65be 056e 1a3e 3a50 d53e 473a ca3e
00000230: 34dd c83c 0eac 94bc 38ab c73e 9216 8e3e
00000240: d116 053d 385a 0ebd d7d5 133e de13 0f3e
00000250: be3c 5f3e 05bd 3c3e b1c1 793e 4e3d 2c3e
00000260: 7c0c ffbe 68c6 36be fe08 76be 70c4 a0be
00000270: 1518 00bf 8fe0 07bf ac83 febe 92bb c5be
00000280: 1a46 f43b 82a9 9a3e c08d 243f 1954 753e
00000290: 91b1 953d 1cb7 8639 e152 1dbe 715f 83bd
000002a0: bc7c 753e 6d96 ffbc 2254 7ebe d41c 02be
000002b0: c0b7 b9bc d705 b73d 5875 5b3e 369b f7be
000002c0: cd3a aabe afa3 05be b510 713d 2096 4a3d
000002d0: 1bd7 51be ef80 213e 6f2f 863e 72ec 84bd
000002e0: f28f 17be ea25 50be 1c99 f2bd 60e0 36be
000002f0: 9124 38be ad63 0dbf 6f25 eabc 1508 5bbd
00000300: b889 91be 697a d9bd ec9e 453d 3637 2abe
00000310: 2487 913e 2630 f53d 2b4e e93e 512f 873e
00000320: 33bd c9bc 0b38 abbe ef37 a23e fc35 ac3d
00000330: 7214 41bf 7d4f 44be 6c05 4ebe edd9 bcbe
00000340: 09b8 b93e dfdd 813d 427d f7be 68aa 183d
00000350: 6783 133e 20bb 39be 642a 093e 37af b6bc
00000360: 9662 afbe 02b3 61be 02b7 5ebd 7c59 913e
00000370: 3042 71be 4e15 ecbe a3a2 013e 893e b1bd
00000380: 661c 67be 04dd 373e 13e6 d9be f8ba 29bd
00000390: 6378 273e 5be3 8c3e 39fd 03be d3b1 143e
000003a0: e5f9 c93e 2c71 3dbe e08b 7f3e 003c da3e
000003b0: 2067 c23e 3529 0abe 7f86 d1be 50c4 b3bc
000003c0: 4511 c3bd 7846 6abc f3ae 3d3e 311a 33be
000003d0: 9002 f93e aeea 333e fc3a 143e e9c0 0a3e
000003e0: ddb9 c63d 0c0e 853d 0735 48be 9bc3 8e3d
000003f0: d9c7 1b3e cc99 a8be 2183 653e 33ba 8dbe
-0.32880723 0.0790499 -0.08553896 0.13916163 0.032117557 0.17163335 0.28516337 0.014110437
0.0695598 -0.46042547 -0.4586008 -0.35723805 -0.21405113 -0.61455894 -0.30453527 -0.48900342
0.6826377 0.2702232 0.12487027 0.10213894 0.115082204 -0.03510728 -0.23083852 0.060535163
-0.2615446 -0.036572352 -0.3648574 -0.38679525 -0.14741728 -0.23105378 -0.46430415 -0.3075424
-0.28532904 -0.21583715 -0.4045191 0.17751293 -0.16296013 -0.037508603 0.19354892 -0.011786312
0.19296685 0.40990466 0.16009104 0.11921022 0.55223066 0.18664311 0.22712943 0.24666746
-0.25485346 -0.44845763 -0.23886958 -0.1299775 -0.41252366 -0.023965549 -0.3940938 -0.07038199
0.077756 -0.14534938 0.13469823 -0.013142498 0.10552517 0.12579747 0.16470535 0.25958776
0.2090545 0.121233106 0.09035969 0.14702232 0.113807246 -0.22115734 -0.048259445 -0.12915498
-0.25244492 -0.30180368 0.001596612 0.020606035 -0.106316045 -0.11076427 -0.44413394 -0.5683996
0.18370272 0.09524528 -0.05963447 0.05207189 0.05141671 0.14739682 0.23861454 0.29926658
-0.1832015 -0.084622644 -0.07510618 0.17790778 -0.8714825 -0.4969348 -0.13440086 -0.2954544
-0.035250627 0.14341556 -0.13038765 0.12935504 0.10820101 0.24646166 0.12996215 0.015804833
0.17779754 0.32472602 -0.029027153 0.019204853 0.3969695 0.37191674 0.330827 -0.2578293
0.4304768 -0.16856818 -0.06816544 -0.41700426 0.23582385 0.0057863323 -0.25649968 -0.30262318
0.29459882 0.24040374 -0.13871242 0.060894508 0.15195525 0.06262368 -0.07315851 0.0072494326
-0.058329485 -0.35205284 -0.29807532 0.03969294 -0.39381474 -0.39122784 0.17039627 -0.048565228
-0.22420524 0.15081032 0.4166277 0.39497587 0.02451954 -0.018148448 0.38997817 0.27751595
0.032492463 -0.034754008 0.14437042 0.13972422 0.21800515 0.1843148 0.24390294 0.16820261
-0.49814212 -0.17849123 -0.24026868 -0.3139987 -0.50036746 -0.53077024 -0.49709833 -0.38619667
0.007454646 0.3020745 0.64278793 0.23957862 0.07309259 0.000256949 -0.15363647 -0.064146884
0.23973364 -0.031199658 -0.24836782 -0.1270631 -0.022670627 0.08936661 0.21431482 -0.48360604
-0.33247986 -0.13050722 0.058853824 0.049459577 -0.20492212 0.1577184 0.26208064 -0.06490411
-0.14801005 -0.20326963 -0.118456095 -0.1785903 -0.17982699 -0.5523022 -0.028582303 -0.053474505
-0.28425384 -0.10619051 0.048247263 -0.16622624 0.28423417 0.11972074 0.4556745 0.26403287
-0.02462635 -0.33441195 0.316833 0.08408734 -0.7542182 -0.19170947 -0.20119256 -0.36885014
0.3627322 0.06341147 -0.48337752 0.037271887 0.14405595 -0.18137789 0.13395077 -0.022300346
-0.34254903 -0.22040942 -0.05437375 0.28388584 -0.23560405 -0.46110004 0.12659697 -0.08654506
-0.22569427 0.17955405 -0.42558345 -0.041438073 0.16354518 0.27517208 -0.12889566 0.1452096
0.39448467 -0.18500203 0.24955702 0.426239 0.37969303 -0.13492282 -0.40922925 -0.021944195
-0.09524778 -0.014299028 0.18523769 -0.1749046 0.48634768 0.17569992 0.14475626 0.13550152
0.09703419 0.0649682 -0.19551478 0.069709025 0.15212955 -0.32929838 0.22413303 -0.2768112

fc1.bias f4 [120]
00000000: 85ed e53d 61c8 01bf 1b23 4dbe 4d7e cfbd
00000010: 3f73 acbe d73e 4bbe 67b5 10be 1c6d c13d
00000020: 9ca1 07be cb22 05bf 6da5 873c cc15 e9bd
00000030: 9571 01be 84b5 d13d fa1a f63d 7852 85bc
00000040: 5052 38bd 2273 973c 0fe6 49be e458 b5bb
00000050: 891a 98be 2a9b 13bd 2563 46bd a46d 2cbe
00000060: 7736 cfbd 8d79 6ebe 3d27 633d a8ae c0be
00000070: 18c1 aa3d 4272 323d f13c 6dbe 791b adbd
00000080: f1a6 33be e4ee 0ebd be13 29be aecf 1a3d
00000090: 3497 00bf 60e7 6ebd d837 b0bd 184c c03d
000000a0: 0797 173e 59dc 04bf 8984 d93c 9b4c b3bd
000000b0: 478c 73be 085c debe 0e9d ce3c 45e5 8dbd
000000c0: 1b8e 22bd 8343 813d bc7d 7bbd 4e24 0ebd
000000d0: 9e7d 04bd eebb f2bd a4fa 67bd f411 5dbd
000000e0: dfa3 10be 275d 55be 2ea0 55bd 07fa 93bc
000000f0: 0f60 99bd cb7d bcbe 264c 52be cb01 54be
00000100: 3ae1 86be e83c fabc 2d8d d6bd 4e7e 80be
00000110: f536 243c 67fa 7bbd 2871 48bc 30ad 49be
00000120: 1598 e3bd db4c 253e 95ff a83d 5b02 f4be
00000130: 9543 03bf b878 cebe 6fc4 fcbd 30f4 ffbc
00000140: d325 d6bc 457f dfbe 6b35 0bbf c282 d3be
00000150: 1dbc d73c 66c0 9f3e 9dc7 2abe 6077 2dbe
00000160: 10e2 7ebe 9efe b4be 4714 53be f19d cd3c
00000170: 75e3 dfbe 4a20 a7bd 3803 aabd a61f 85bd
00000180: 573b 4cbc 1be5 1c3e ec38 05be d987 28bd
00000190: 8c7d 6abe 817a 00bd 28c1 34be 5889 52bd
000001a0: d6d6 0dbe b45a 8bbd d3c9 3bbd 3499 743c
000001b0: b143 91be 7301 00be c58d cabd b37d afbe
000001c0: e1a1 313e 6d7c 023e b20a 85be 7d7d 313d
000001d0: 27e4 debd a027 e1be 4de3 f2bc c1f9 dabe
0.11226944 -0.5069638 -0.20032923 -0.10131512 -0.33681676 -0.1984819 -0.141317 0.09444639
-0.13245243 -0.52006215 0.016558373 -0.113811105 -0.12640984 0.102396995 0.12016864 -0.016274676
-0.045000374 0.018487517 -0.19716667 -0.005534278 -0.29707745 -0.036036648 -0.048434395 -0.168387
-0.1011781 -0.23288555 0.055457342 -0.37633252 0.08337611 0.043565996 -0.23167779 -0.084525056
-0.17544152 -0.034895793 -0.16511437 0.037795715 -0.5023072 -0.058326125 -0.08604401 0.09389514
0.14803706 -0.51898724 0.026552455 -0.08754846 -0.2378398 -0.4342959 0.025221374 -0.06928495
-0.039686304 0.06311705 -0.061399207 -0.03470259 -0.03234636 -0.11852251 -0.056635514 -0.0539722
-0.14125012 -0.20836316 -0.052154712 -0.018063558 -0.07489025 -0.36814722 -0.20536861 -0.20703809
-0.2634371 -0.03054662 -0.10476146 -0.25096363 0.010022868 -0.0615181 -0.01223401 -0.19694972
-0.11112992 0.161426 0.082518734 -0.47658047 -0.51274997 -0.40326476 -0.12342154 -0.031244367
-0.026141083 -0.43651786 -0.54378384 -0.41310698 0.026334817 0.31201476 -0.16677709 -0.16940069
-0.24890924 -0.35350507 -0.20613204 0.025099726 -0.43728223 -0.081604555 -0.08301395 -0.06500177
-0.01246532 0.15321772 -0.13009995 -0.04114518 -0.22899455 -0.03136683 -0.17651808 -0.051400512
-0.13851485 -0.068044096 -0.04584677 0.014929105 -0.28371957 -0.12500553 -0.09890322 -0.34275588
0.17346908 0.12742777 -0.25984722 0.043332566 -0.1088336 -0.43975544 -0.029649401 -0.42768672

fc2.weight f4 [84, 120]
00000000: 0900 86be cca9 c93d 2da7 e2be d2fb a6bd
00000010: 89bd 06bd e497 303d 80bc 9dbd 3754 9abd
00000020: c4dd 06bd 626e d63d 670a 103e 7d17 8b3e
00000030: cb79 af3e 66f1 19be 758d 1cbe 186c 4b3d
00000040: 346a 7dbd 5da1 61be 60f7 433e c712 813e
00000050: 741b 51be 1aa0 9e3d 74d5 f73d bc02 c9bd
00000060: 9351 76bd 17cf 9e3e adfc 533d e9c1 cc3e
00000070: d01f b6bd faf1 643e 0bba f63b 254b 3abe
00000080: 1e79 2c3d 9f6d ddbd 094f debc edb4 34be
00000090: 7de5 7a3e 4cc7 483d a684 e1bd a04b 913c
000000a0: ac02 ffbe 6526 00be fce6 1fbe 6ac9 d73d
000000b0: 9439 073e 40a4 833d 0b54 2bbd e5fb 5ebe
000000c0: 220c 0bbc acbc dc3d 689b 25be c1dc 0abd
000000d0: b445 75bd 5863 e73e 7d7c abbd f0af b43d
000000e0: cbe7 56bd a8f6 24be c800 5b3d d98b 75bd
000000f0: 5e81 12bd 43db 88be 9861 86be dad5 78be
00000100: ed13 8c3e 32c8 24bd 8aa8 b4be b059 d93c
00000110: bea4 9c3d 2d67 31bd 595e b0be 405d 463d
00000120: 5e9a 2ebd 6989 dfbe c971 14bf ed1c 643e
00000130: 7578 d73d 7695 71be c744 a13d 6668 b2bd
00000140: f46c aabd 2eb4 c23d c85f d53c 13f3 de3d
00000150: 3c10 813d 16c8 00bf 098f 99bc f962 8a3e
00000160: a367 8ebe d05a b33e b104 b93d 5319 553e
00000170: edd4 863d 8880 36bd 3fdf 823d 84f9 5e3d
00000180: d490 99bd 0b4e 44be f5c7 efbd e09b 193d
00000190: eea8 783e e84d 99bd 7612 393e c957 933d
000001a0: 4c94 3f3e e9e2 3abd 7cd9 28be 7fd3 15be
000001b0: ae85 063e a76c e5bd 6b8c 2fbd 73f2 9bbd
000001c0: dae3 69bd 2a80 a4bd f607 cd3d c3b9 cabe
000001d0: da50 5d3e efba b0be 75a6 fdbc b539 b0bd
000001e0: af9e 23bd 83ba 583d 9fe7 d63d 9fcd 4ebd
000001f0: 3070 3abd 5309 11bf 74ac b4bd a6cf fc3c
00000200: 4a99 b93e 1df8 dd3e fdaa 81bd f428 ed3d
00000210: bbe9 a5bd efbd 413e 02e0 cd3e 9c3d b63d
00000220: cb6b afbe 6b0c 263e 6420 ef3c 4fdf 50be
00000230: 3bf6 513e e15e 4ebd 9212 8a3d 76dd bb3d
00000240: a007 b8bc 03cd 1a3e 2a50 a5be 3918 1b3e
00000250: ffaf 8ebd fc78 543c 8d5b 64bd 2bcb 5bbd
00000260: 9870 aebc 3294 6fbe 701f efbc fc13 8dbb
00000270: 70da b63c 59b4 63be 9ca3 cabe 187f 883e
00000280: 7ae9 a73b 2946 673e fcc7 de3d 0e00 c7bd
00000290: 2cce 9a3e 6b81 2c3e 4da9 463b b4d7 f43d
000002a0: 3cfa 8e3e 72df efbe d176 283e 760f f1bd
000002b0: d7d2 55bd 743d d13e b8f8 973e 2e8a a33d
000002c0: ca01 51be f7d2 d3bd a225 ff3b 5109 24bd
000002d0: c56b 5c3d e1e9 e1bd c088 9abe 53f8 0abe
000002e0: cfb5 58bd bea2 843d d2bd 9d3d d74b c73e
000002f0: 8a2b 10bd 28a1 353d 6534 d4be ff19 c13d
00000300: eb38 b4bd d144 63be 0309 bebe 78e5 133d
00000310: dee8 423d 210d d1bc 1b15 5f3e a54e 2abd
00000320: cf00 31bf d00b 2b38 7b53 283d e406 cf3d
00000330: 82d1 943d f9db 7dbc 42e3 1dbe be70 87bd
00000340: 7366 933d e3b0 a5bd 409f 7c3d ae8e 00bf
00000350: c209 8a3d 9327 e2bc 6092 453b 5286 e53c
00000360: 30a9 5dbc 7daf 54be c4cc 583c 03c1 01bd
00000370: 1aec 43bd 62bd b43d 28bd aabd da08 ed3a
00000380: 2f19 4b3e 939a 9bbe 623b 6cbe 0576 00be
00000390: 21dc 7fba 3305 e53d e459 1b3d 1545 a43e
000003a0: 98b5 893e d50a 9bbd 0d89 3a3e 2cad 9e3e
000003b0: e23f 93be ac68 b33e a684 ac3c 89de 553e
000003c0: a816 05be f874 87be addc 5fbc db1c 6cbd
000003d0: f518 eebd 5d79 08be c8ce e63d 9acb 95be
000003e0: 961c bdbb 205d e1bd adfc 0f3e 8b69 b73e
000003f0: 944f 6bbe 0fec 0dbe ea45 5e3e a8fb a5bd
-0.26171902 0.09846839 -0.4426817 -0.081535 -0.0328956 0.043113604 -0.07701969 -0.07535594
-0.032926336 0.104702726 0.14066468 0.27166358 0.34272608 -0.15033492 -0.15288337 0.049663633
-0.06186886 -0.22034211 0.19137335 0.25209638 -0.20420629 0.07745381 0.1210126 -0.09814975
-0.06013639 0.31017372 0.051754642 0.39991692 -0.088927865 0.22357932 0.0075295023 -0.18192728
0.042107694 -0.10811924 -0.027137296 -0.17647143 0.24501605 0.04901819 -0.11011629 0.017736256
-0.49806726 -0.12514646 -0.15615457 0.105364636 0.13205558 0.064278126 -0.041828196 -0.21775778
-0.008486779 0.10778174 -0.16172564 -0.033901934 -0.059880927 0.4519298 -0.08373354 0.0882262
-0.05246715 -0.16109717 0.053467542 -0.059947822 -0.035767905 -0.26729783 -0.26246333 -0.24300328
0.27358952 -0.040229984 -0.35284835 0.026532024 0.076486096 -0.043311287 -0.34446982 0.048428774
-0.042627685 -0.43659523 -0.5798612 0.2227666 0.10521022 -0.23592171 0.07874446 -0.08711319
-0.083215624 0.09507023 0.026046649 0.108862065 0.063019246 -0.50305307 -0.018744962 0.27028635
-0.27813444 0.35030222 0.09034098 0.20810442 0.06583581 -0.04455617 0.06390237 0.054437175
-0.07498327 -0.19170396 -0.11708061 0.03750217 0.24283192 -0.074855626 0.18073449 0.07194478
0.18708915 -0.045626555 -0.16489214 -0.1463146 0.13136932 -0.112023644 -0.042858522 -0.07614603
-0.05710206 -0.08032258 0.10011284 -0.3959485 0.21612874 -0.3451762 -0.030963162 -0.08604757
-0.039946254 0.052912246 0.10493397 -0.050489064 -0.045517147 -0.5665485 -0.08821955 0.030860733
0.36249763 0.43353358 -0.063314416 0.11580077 -0.08101221 0.1892011 0.40209967 0.0889847
-0.34261927 0.16215675 0.02919025 -0.20397685 0.20504086 -0.050383452 0.06741823 0.091731
-0.022464573 0.15117268 -0.32287723 0.15145959 -0.06967162 0.012968298 -0.055751372 -0.053660553
-0.021293923 -0.23396376 -0.029189795 -0.004305361 0.022320956 -0.22236766 -0.3957795 0.26659465
0.005124268 0.22585358 0.10877988 -0.09716807 0.30235422 0.16846244 0.0030313313 0.119552046
0.2792529 -0.46850163 0.16451575 -0.11770527 -0.052203026 0.40867198 0.29681945 0.0798534
-0.20410839 -0.10342973 0.0077864686 -0.040047947 0.053813715 -0.11030937 -0.30182457 -0.1357129
-0.05290776 0.06476353 0.07702221 0.3892505 -0.035197772 0.044343144 -0.41446224 0.094287865
-0.08799919 -0.2219422 -0.3711625 0.03610751 0.04758536 -0.025518956 0.21785395 -0.041578908
-0.6914186 4.078058e-05 0.04109524 0.10108736 0.07266523 -0.01549434 -0.15418723 -0.06613301
0.07197275 -0.08090379 0.06167531 -0.5021771 0.067401424 -0.027606761 0.003014706 0.02801815
-0.013529107 -0.20770068 0.013232414 -0.03167821 -0.047832586 0.088251844 -0.0833686 0.0018084303
0.19833826 -0.30391368 -0.23069528 -0.12545021 -0.000976028 0.11182632 0.037927523 0.32083955
0.26896358 -0.075704254 0.18216343 0.30991495 -0.28759676 0.35040796 0.021059345 0.20885672
-0.12996924 -0.26456428 -0.013663453 -0.057644706 -0.11625854 -0.13327546 0.11269909 -0.29256898
-0.00577123 -0.1100409 0.14061232 0.3582271 -0.22979575 -0.1385958 0.21706358 -0.0810464

fc2.bias f4 [84]
00000000: 99dc 37bd b01e 8dbe c9ad 563e 4ad6 8dbe
00000010: b39b 2dbe a63a 87bd 7c48 97bd 373d 29be
00000020: 91a8 d33c 3148 4ebe c910 373d 738a adbe
00000030: f704 8bbd 587b 72bd cd98 2b3e 7b4d 02bf
00000040: 936a 7a3b c424 bcbd 8bde 9fbc 9f2a 69bd
00000050: 3874 05bf 580a c5bd 9038 40be fe80 963c
00000060: 95d2 b0be a7b1 963d b91a cfbc 8a35 01be
00000070: b9be 5abe 4ccf 8bbe 364f d33c e670 03be
00000080: e737 73be 907b d6be 123f 94be 87d4 2abd
00000090: b294 38be 3c1c a9be 73e2 2abe a47b bdbb
000000a0: f40d 67be 8604 1cbe 634f 0ebe 2a24 56be
000000b0: fe2d dabe ca54 e2bd 913c 71be ae53 473e
000000c0: 91d5 d2bd bdd9 efbe 828e 963d e8b3 babd
000000d0: 26de d9bd 5c08 f0bc 0c18 a0be e108 69be
000000e0: b98e bdbd 3ab7 d5bc f3bf 06be 67c7 13be
000000f0: ffdd 57bd eda1 243e 47a9 19be d0b9 aabd
00000100: 0a15 c9bd 6691 91be 62b9 94be 2603 53be
00000110: d053 20be 3781 8bbe 598e 14be 7e92 6abe
00000120: fdd1 12bf 5fa5 99be 0db7 d7be e937 8d3d
00000130: f8eb c2be 118b 84be 4931 efbc 98e9 7f3d
00000140: c2fa 35be 34db a1be 39e3 8cbe f198 1f3d
-0.044888113 -0.27562475 0.20964731 -0.27702552 -0.16953926 -0.06602983 -0.07386872 -0.16527258
0.025837215 -0.20144726 0.044693742 -0.3389469 -0.06788056 -0.05919966 0.16757508 -0.50899476
0.0038210496 -0.091867 -0.019515296 -0.056925412 -0.5213046 -0.096211135 -0.18771577 0.018372055
-0.3453566 0.07358103 -0.025281297 -0.1261808 -0.21361817 -0.27306592 0.025794607 -0.12836036
-0.23751794 -0.41891146 -0.2895437 -0.041706588 -0.18025473 -0.33029354 -0.16687946 -0.0057825614
-0.22563916 -0.152361 -0.13897471 -0.20912233 -0.42613214 -0.110513285 -0.2355826 0.19465515
-0.10294641 -0.4684581 0.073514 -0.09116346 -0.106380746 -0.029300861 -0.31268346 -0.22757293
-0.09255738 -0.026088346 -0.1315916 -0.14431535 -0.052701946 0.16077395 -0.1500598 -0.08336222
-0.09818466 -0.28431243 -0.29047686 -0.2060667 -0.15656972 -0.2724702 -0.14507426 -0.22907445
-0.57351667 -0.3000898 -0.42131844 0.0689543 -0.38070655 -0.2588735 -0.029198306 0.06247863
-0.17771438 -0.3161255 -0.27517107 0.038964216

fc3.weight f4 [10, 84]
00000000: 1ec1 aebe eabf 20bf 23cb 6abd a5e5 ddbe
00000010: 3ace b9be bde3 5cbf 8d25 63bf bed5 8dbe
00000020: 3e3f 0bbf 476d 233e fccc a5be e1d5 adbe
00000030: e163 05bf f36d 00bf b472 e3be 5046 f3be
00000040: cacb 88bf 5c88 4fbe 6786 2b3d 049b 33bf
00000050: 5a4c dc3d 0c52 42bf ab05 94be ad27 5cbf
00000060: 8636 babd 9de8 0dbf 0b35 18bf 34be 59be
00000070: 65e9 873c ffd8 47be 1ef4 efbe 63f4 4abe
00000080: 7a80 f4be c264 24bf 3eba 7ebf 9b14 633d
00000090: 79d1 35bf 9ee9 16bf 2467 0ebe 78f9 6f3d
000000a0: 4011 17bf f2d5 f5bd 66af 28bd a04f 003e
000000b0: 48f3 0ebf 8b08 8dbe 8b64 85bb 23c4 19be
000000c0: 817b 903d b0da 4bbe 1a69 9cbe 2569 21bc
000000d0: 633c 99be 0b54 8abf 7492 c3bc 6d04 903d
000000e0: a46d 74bf b181 7bbe 820d 993d b9ec 38be
000000f0: 84ad 03bf 60ab 57bf 23fe 3abe 2bb6 27bf
00000100: 6b45 2fbf 7b95 42be 33a1 5bbf a7df 2c3d
00000110: 3887 43be 2c01 203d 029a 4b3c 1831 14bf
00000120: 3b33 883c 8427 723d 5fc4 8d3c 7713 74bf
00000130: 5c17 1bbe 8519 00bf 82c5 d1be d511 2b3e
00000140: 5835 99bd a6e0 90be 80c9 00bf cca2 86bf
00000150: 4906 35bf f106 483d 7066 e1be 3ec8 37be
00000160: cc53 f7be 21fd 19bb 0bb6 64bd a081 12bf
00000170: 9ca1 4ebf 5bfa 05bf 8b91 2cbf 3cbb d0bf
00000180: fd7b f7be 6219 163e 516f 733d 78e8 1fbe
00000190: e10f 143e 25ed a6be c752 febe f177 8e3e
000001a0: 32bd 0fbe 1786 ecbe 4b45 18bf f388 113c
000001b0: bafa 6abe 8ad8 b6be 293e 78bc 8361 84bf
000001c0: e9c2 85be 2fe7 93bd fb4e 2bbf c57a ffbc
000001d0: 1873 a7bd 1ebf f8bd 7775 88bc 8f18 29bd
000001e0: 12cb 33bf ac5d 8cbd 4fbb 78be ceeb f9bd
000001f0: f915 4bbe ea91 33bf cc96 cabd 204f 03be
00000200: 1df9 56bd c125 36bd 55ad 26bd 644b 7b3d
00000210: 3455 5fbf 8b39 03bf 6366 5e3d a1e5 0bbf
00000220: 9c69 6cbe a20a 9dbf 6148 80be 7504 0a3e
00000230: e4c2 adbf ab03 fcbe a5a8 d63c 00dd debe
00000240: 8d25 cf3c 754d a9be 542d a2bd 2857 9dbe
00000250: 8be1 22be b5b8 1abf 0c65 bfbd fde7 7ebf
00000260: 029f 90be 092e 08bf cb4e febe fa67 d7bd
00000270: f18b b5be 6254 6b3d 3ec3 3cbe 7409 0a3d
00000280: 4fbf 38be d610 e5bb 130b 2fbf 8e02 adbc
00000290: 1b49 58bf 1dea 7dbf 7528 a0bd 7ba9 cf3c
000002a0: fed2 c23d 7241 00be a22d 95be e5d7 823c
000002b0: bcb4 a1be 11c1 05bf 956f f1be f859 2fbf
000002c0: 9a1f 62bd 6e6d 34bf af24 26bf 40de 03bf
000002d0: 2a7a 99bf 4b82 8b3d ba26 1fbf f4ac 1dbf
000002e0: f335 30bf 5d90 1b3d 4b71 eebe 96a7 d2be
000002f0: b10c 993d 18c7 03be 4741 cd3c 9882 8abe
00000300: aeda 12be 73cb 2a3d ad37 b7bd 1dbb 89bf
00000310: aa25 13be 35f1 a63d ba69 bfbc 2a07 03bb
00000320: 5f99 4dbd 0ce5 2cbe d059 d6be b147 18be
00000330: 29bc 31bf 679d 42bf 585e a6be c0ad 05bf
00000340: b181 f9be 542c 223d 4a8b 8b3d 316a 34bf
00000350: 4be4 853d 85c6 cebe a9db 1bbb 94ba 3cbf
00000360: 1e7c 55bf 3c03 c0bd 5020 dd3c 3cef 2b3e
00000370: 29c2 3dbe b5d6 66be 9895 87bd 5a74 acbc
00000380: 9cd4 a3be 4113 e9be 7894 43be e4a4 f13c
00000390: f2d6 403d ba07 d0be ab0e ef3d 8eba 36be
000003a0: c506 4e3d cdac dabe 1f99 a6be bc75 c1bb
000003b0: 48ff b33d d0fc b1bd 557d c43b 1de9 ffbe
000003c0: b391 cdbe 3803 f33d 62c2 f7be a62a 0ebf
000003d0: 925c 1cbe 5e99 bfbe 0708 24bf 3b5a 08be
000003e0: 8379 68bc 6daa 99bd 8b5d cdbe 257c 87bb
000003f0: 4863 20be a749 12bf d67e 223d dc86 20bf
-0.34131712 -0.6279284 -0.057322633 -0.43339267 -0.3629015 -0.86285 -0.8872917 -0.27702135
-0.54393375 0.15959655 -0.32382953 -0.3395224 -0.5210553 -0.5016777 -0.4442345 -0.47514582
-1.0687191 -0.2026686 0.041876223 -0.7015841 0.107567504 -0.75906444 -0.28910574 -0.8599804
-0.09092431 -0.55433065 -0.5945594 -0.21263963 0.016590783 -0.19516371 -0.46865934 -0.19819789
-0.4775427 -0.64216244 -0.99502933 0.055439573 -0.71022755 -0.5895022 -0.13906533 0.05858752
-0.59010696 -0.120036975 -0.041182898 0.12530375 -0.5583997 -0.2754558 -0.0040708235 -0.15016226
0.070548065 -0.19907641 -0.30548936 -0.009851729 -0.29928884 -1.0806898 -0.023873545 0.07032094
-0.954798 -0.24561192 0.074732795 -0.18059053 -0.5143664 -0.8424587 -0.18261008 -0.6551234
-0.684653 -0.19002335 -0.85792845 0.04220548 -0.1909455 0.039063618 0.012426855 -0.5788741
0.016625991 0.059119716 0.017305551 -0.953422 -0.1514563 -0.5003894 -0.40971 0.16706021
-0.07480878 -0.28296393 -0.50307465 -1.0518432 -0.70712715 0.048834745 -0.44023466 -0.1794748
-0.4830612 -0.0023496824 -0.055837672 -0.5722904 -0.80715346 -0.5233514 -0.6740958 -1.6307139
-0.48336783 0.1465812 0.05943233 -0.15616024 0.14459182 -0.32602802 -0.4967253 0.27825883
-0.14037016 -0.46196052 -0.5948073 0.008882749 -0.22947207 -0.3571208 -0.015151539 -1.0342258
-0.26125267 -0.07221829 -0.6691739 -0.03118647 -0.08176249 -0.12145828 -0.016657574 -0.041283187
-0.70231736 -0.06853804 -0.24290203 -0.12203179 -0.198326 -0.7014452 -0.098920435 -0.12823153
-0.052483667 -0.0444696 -0.040692646 0.061351195 -0.87239385 -0.5125968 0.054296862 -0.5464726
-0.23087162 -1.226887 -0.2505522 0.13478263 -1.3575101 -0.49221548 0.026203463 -0.43527985
0.02528646 -0.33066908 -0.07918802 -0.30730557 -0.1590635 -0.6043809 -0.09345445 -0.99572736
-0.28246313 -0.53195244 -0.4966949 -0.10517879 -0.3545833 0.05745352 -0.18433854 0.03370042
-0.18041728 -0.0069905324 -0.6837627 -0.021119382 -0.8448655 -0.99185354 -0.078202166 0.02534937
0.095129 -0.12524965 -0.29136378 0.015972087 -0.31583202 -0.5224772 -0.47155443 -0.68496656
-0.05520592 -0.70479476 -0.64899725 -0.51511 -1.1990407 0.06811961 -0.6216847 -0.6159203
-0.6883232 0.037979472 -0.4657081 -0.41143483 0.07473124 -0.12868917 0.02505554 -0.2705276
-0.14341232 0.04169793 -0.08946166 -1.0760227 -0.14369836 0.08151475 -0.023365844 -0.0019993284
-0.050195094 -0.1688425 -0.41865396 -0.14871098 -0.69427735 -0.76021427 -0.32493854 -0.52218246
-0.4873176 0.039593056 0.06813677 -0.70474535 0.06537684 -0.40385833 -0.002378205 -0.73722196
-0.8339251 -0.09375617 0.026992947 0.1679048 -0.18531097 -0.22542842 -0.066203296 -0.021051574
-0.31998146 -0.45522502 -0.19099605 0.029497571 0.047079988 -0.40630895 0.116727196 -0.17844602
0.050299425 -0.42709962 -0.32538697 -0.0059039276 0.087889254 -0.08690798 0.005996386 -0.4998254
-0.40150222 0.11865848 -0.4839049 -0.55533826 -0.15269688 -0.37421697 -0.6407475 -0.1331567
-0.014189127 -0.07503209 -0.4011043 -0.004134672 -0.15662873 -0.57143635 0.03967174 -0.6270578

fc3.bias f4 [10]
00000000: 3124 0fbd 8f94 0b3e c2d6 59be 6d4a 2dbd
00000010: 360d 673d 3a5f 70bd 7a4a 8abe d274 653d
00000020: 361e 843e 2d0e 15be
-0.034946624 0.1363089 -0.2127333 -0.042307306 0.056409083 -0.058684565 -0.27009946 0.05601961
0.258043 -0.14556189
